…
	Sebastian           : {'Wake': 12961, 'REM': 1828, 'Non REM': 12257}
	Maiken              : {'Wake': 2921, 'REM': 756, 'Non REM': 6699}
[2024-10-15 11:51:23,759] {dataloader:189} INFO - data distribution after processing:
	Antoine             : {'Wake': 12366, 'REM': 1430, 'Non REM': 11885}
	Alessandro          : {'Wake': 45719, 'REM': 4606, 'Non REM': 35913}
	Sebastian           : {'Wake': 12961, 'REM': 1828, 'Non REM': 12257}
	Maiken              : {'Wake': 2921, 'REM': 756, 'Non REM': 6699}
[2024-10-15 11:51:25,152] {run_experiment_multiple_labs:49} INFO - classifier:
Model(
  (feature_extractor): Sequential(
    (0): BatchNorm1d(1, eps=1e-05, momentum=0.1, affine=True, track_running_stats=True)
    (1): Conv1d(1, 96, kernel_size=(5,), stride=(1,))
    (2): ReLU(inplace=True)
    (3): BatchNorm1d(96, eps=1e-05, momentum=0.1, affine=True, track_running_stats=True)
    (4): Dropout(p=0.0, inplace=False)
    (5): Conv1d(96, 96, kernel_size=(5,), stride=(2,))
    (6): ReLU(inplace=True)
    (7): BatchNorm1d(96, eps=1e-05, momentum=0.1, affine=True, track_running_stats=True)
    (8): Dropout(p=0.2, inplace=False)
    (9): Conv1d(96, 96, kernel_size=(5,), stride=(1,))
    (10): ReLU(inplace=True)
    (11): BatchNorm1d(96, eps=1e-05, momentum=0.1, affine=True, track_running_stats=True)
    (12): Dropout(p=0.0, inplace=False)
    (13): Conv1d(96, 96, kernel_size=(5,), stride=(2,))
    (14): ReLU(inplace=True)
    (15): BatchNorm1d(96, eps=1e-05, momentum=0.1, affine=True, track_running_stats=True)
    (16): Dropout(p=0.2, inplace=False)
    (17): Conv1d(96, 96, kernel_size=(5,), stride=(1,))
    (18): ReLU(inplace=True)
    (19): BatchNorm1d(96, eps=1e-05, momentum=0.1, affine=True, track_running_stats=True)
    (20): Dropout(p=0.0, inplace=False)
    (21): Conv1d(96, 96, kernel_size=(5,), stride=(2,))
    (22): ReLU(inplace=True)
    (23): BatchNorm1d(96, eps=1e-05, momentum=0.1, affine=True, track_running_stats=True)
    (24): Dropout(p=0.2, inplace=False)
    (25): Conv1d(96, 96, kernel_size=(5,), stride=(1,))
    (26): ReLU(inplace=True)
    (27): BatchNorm1d(96, eps=1e-05, momentum=0.1, affine=True, track_running_stats=True)
    (28): Dropout(p=0.0, inplace=False)
    (29): Conv1d(96, 96, kernel_size=(5,), stride=(2,))
    (30): ReLU(inplace=True)
    (31): BatchNorm1d(96, eps=1e-05, momentum=0.1, affine=True, track_running_stats=True)
    (32): Dropout(p=0.2, inplace=False)
  )
  (classifier): Sequential(
    (0): Dropout(p=0.2, inplace=False)
    (1): Linear(in_features=10848, out_features=80, bias=True)
    (2): ReLU(inplace=True)
    (3): Dropout(p=0.2, inplace=False)
    (4): Linear(in_features=80, out_features=3, bias=True)
  )
)
[2024-10-15 11:52:54,208] {train_model:80} INFO - Train Epoch: 1 [91904/923546 (10%)]	lr:2.56e-05	Loss: 65.946899
[2024-10-15 11:53:13,582] {train_model:80} INFO - Train Epoch: 1 [184064/923546 (20%)]	lr:2.56e-05	Loss: 34.018993
[2024-10-15 11:53:33,547] {train_model:80} INFO - Train Epoch: 1 [276224/923546 (30%)]	lr:2.56e-05	Loss: 32.710796
[2024-10-15 11:53:52,047] {train_model:80} INFO - Train Epoch: 1 [368384/923546 (40%)]	lr:2.56e-05	Loss: 28.766895
…
