…
	Sebastian           : {'Wake': 18622, 'Non REM': 17611, 'REM': 2627}
	Maiken              : {'Wake': 4197, 'Non REM': 9625, 'REM': 1086}
[2024-03-27 13:58:27,996] {dataloader:202} INFO - data distribution after processing:
	Kornum              : {'Wake': 97213, 'Non REM': 68746, 'REM': 11120}
	Alessandro          : {'Wake': 65688, 'Non REM': 51600, 'REM': 6618}
	Sebastian           : {'Wake': 18622, 'Non REM': 17611, 'REM': 2627}
	Maiken              : {'Wake': 4197, 'Non REM': 9625, 'REM': 1086}
[2024-03-27 13:58:28,864] {run_experiment_multiple_labs:49} INFO - classifier:
Model(
  (feature_extractor): Sequential(
    (0): BatchNorm1d(1, eps=1e-05, momentum=0.1, affine=True, track_running_stats=True)
    (1): Conv1d(1, 96, kernel_size=(5,), stride=(1,))
    (2): ReLU(inplace=True)
    (3): BatchNorm1d(96, eps=1e-05, momentum=0.1, affine=True, track_running_stats=True)
    (4): Dropout(p=0.0, inplace=False)
    (5): Conv1d(96, 96, kernel_size=(5,), stride=(2,))
    (6): ReLU(inplace=True)
    (7): BatchNorm1d(96, eps=1e-05, momentum=0.1, affine=True, track_running_stats=True)
    (8): Dropout(p=0.2, inplace=False)
    (9): Conv1d(96, 96, kernel_size=(5,), stride=(1,))
    (10): ReLU(inplace=True)
    (11): BatchNorm1d(96, eps=1e-05, momentum=0.1, affine=True, track_running_stats=True)
    (12): Dropout(p=0.0, inplace=False)
    (13): Conv1d(96, 96, kernel_size=(5,), stride=(2,))
    (14): ReLU(inplace=True)
    (15): BatchNorm1d(96, eps=1e-05, momentum=0.1, affine=True, track_running_stats=True)
    (16): Dropout(p=0.2, inplace=False)
    (17): Conv1d(96, 96, kernel_size=(5,), stride=(1,))
    (18): ReLU(inplace=True)
    (19): BatchNorm1d(96, eps=1e-05, momentum=0.1, affine=True, track_running_stats=True)
    (20): Dropout(p=0.0, inplace=False)
    (21): Conv1d(96, 96, kernel_size=(5,), stride=(2,))
    (22): ReLU(inplace=True)
    (23): BatchNorm1d(96, eps=1e-05, momentum=0.1, affine=True, track_running_stats=True)
    (24): Dropout(p=0.2, inplace=False)
    (25): Conv1d(96, 96, kernel_size=(5,), stride=(1,))
    (26): ReLU(inplace=True)
    (27): BatchNorm1d(96, eps=1e-05, momentum=0.1, affine=True, track_running_stats=True)
    (28): Dropout(p=0.0, inplace=False)
    (29): Conv1d(96, 96, kernel_size=(5,), stride=(2,))
    (30): ReLU(inplace=True)
    (31): BatchNorm1d(96, eps=1e-05, momentum=0.1, affine=True, track_running_stats=True)
    (32): Dropout(p=0.2, inplace=False)
  )
  (classifier): Sequential(
    (0): Dropout(p=0.2, inplace=False)
    (1): Linear(in_features=10848, out_features=80, bias=True)
    (2): ReLU(inplace=True)
    (3): Dropout(p=0.2, inplace=False)
    (4): Linear(in_features=80, out_features=3, bias=True)
  )
)
[2024-03-27 13:59:56,433] {train_model:84} INFO - Train Epoch: 1 [141568/1419038 (10%)]	lr:2.56e-05	Loss: 54.970581
[2024-03-27 14:00:21,780] {train_model:84} INFO - Train Epoch: 1 [283392/1419038 (20%)]	lr:2.56e-05	Loss: 34.951321
[2024-03-27 14:00:47,408] {train_model:84} INFO - Train Epoch: 1 [425216/1419038 (30%)]	lr:2.56e-05	Loss: 28.440252
[2024-03-27 14:01:13,403] {train_model:84} INFO - Train Epoch: 1 [567040/1419038 (40%)]	lr:2.56e-05	Loss: 19.077999
…
