…
	Sebastian           : {'Wake': 6105, 'REM': 861, 'Non REM': 5773}
	Maiken              : {'Wake': 3586, 'REM': 928, 'Non REM': 8225}
[2024-10-14 09:45:59,799] {dataloader:189} INFO - data distribution after processing:
	Antoine             : {'Wake': 6134, 'REM': 709, 'Non REM': 5895}
	Alessandro          : {'Wake': 6754, 'REM': 680, 'Non REM': 5305}
	Sebastian           : {'Wake': 6105, 'REM': 861, 'Non REM': 5773}
	Maiken              : {'Wake': 3586, 'REM': 928, 'Non REM': 8225}
[2024-10-14 09:46:02,249] {run_experiment_multiple_labs:49} INFO - classifier:
Model(
  (feature_extractor): Sequential(
    (0): BatchNorm1d(1, eps=1e-05, momentum=0.1, affine=True, track_running_stats=True)
    (1): Conv1d(1, 96, kernel_size=(5,), stride=(1,))
    (2): ReLU(inplace=True)
    (3): BatchNorm1d(96, eps=1e-05, momentum=0.1, affine=True, track_running_stats=True)
    (4): Dropout(p=0.0, inplace=False)
    (5): Conv1d(96, 96, kernel_size=(5,), stride=(2,))
    (6): ReLU(inplace=True)
    (7): BatchNorm1d(96, eps=1e-05, momentum=0.1, affine=True, track_running_stats=True)
    (8): Dropout(p=0.2, inplace=False)
    (9): Conv1d(96, 96, kernel_size=(5,), stride=(1,))
    (10): ReLU(inplace=True)
    (11): BatchNorm1d(96, eps=1e-05, momentum=0.1, affine=True, track_running_stats=True)
    (12): Dropout(p=0.0, inplace=False)
    (13): Conv1d(96, 96, kernel_size=(5,), stride=(2,))
    (14): ReLU(inplace=True)
    (15): BatchNorm1d(96, eps=1e-05, momentum=0.1, affine=True, track_running_stats=True)
    (16): Dropout(p=0.2, inplace=False)
    (17): Conv1d(96, 96, kernel_size=(5,), stride=(1,))
    (18): ReLU(inplace=True)
    (19): BatchNorm1d(96, eps=1e-05, momentum=0.1, affine=True, track_running_stats=True)
    (20): Dropout(p=0.0, inplace=False)
    (21): Conv1d(96, 96, kernel_size=(5,), stride=(2,))
    (22): ReLU(inplace=True)
    (23): BatchNorm1d(96, eps=1e-05, momentum=0.1, affine=True, track_running_stats=True)
    (24): Dropout(p=0.2, inplace=False)
    (25): Conv1d(96, 96, kernel_size=(5,), stride=(1,))
    (26): ReLU(inplace=True)
    (27): BatchNorm1d(96, eps=1e-05, momentum=0.1, affine=True, track_running_stats=True)
    (28): Dropout(p=0.0, inplace=False)
    (29): Conv1d(96, 96, kernel_size=(5,), stride=(2,))
    (30): ReLU(inplace=True)
    (31): BatchNorm1d(96, eps=1e-05, momentum=0.1, affine=True, track_running_stats=True)
    (32): Dropout(p=0.2, inplace=False)
  )
  (classifier): Sequential(
    (0): Dropout(p=0.2, inplace=False)
    (1): Linear(in_features=10848, out_features=80, bias=True)
    (2): ReLU(inplace=True)
    (3): Dropout(p=0.2, inplace=False)
    (4): Linear(in_features=80, out_features=3, bias=True)
  )
)
[2024-10-14 09:47:19,497] {train_model:80} INFO - Train Epoch: 1 [36352/366115 (10%)]	lr:2.56e-05	Loss: 75.721123
[2024-10-14 09:47:32,839] {train_model:80} INFO - Train Epoch: 1 [72960/366115 (20%)]	lr:2.56e-05	Loss: 54.554718
[2024-10-14 09:47:45,302] {train_model:80} INFO - Train Epoch: 1 [109568/366115 (30%)]	lr:2.56e-05	Loss: 48.435795
[2024-10-14 09:47:57,790] {train_model:80} INFO - Train Epoch: 1 [146176/366115 (40%)]	lr:2.56e-05	Loss: 47.081573
…
