…
[2024-03-30 02:46:16,470] {dataloader:147} INFO - data distribution after processing:
	Wake                : 203747
	Non REM             : 143767
	REM                 : 18606
[2024-03-30 02:46:17,910] {dataloader:120} INFO - data distribution in database for dataset valid:
	Wake                : 28382
	Non REM             : 20704
	REM                 : 2544
[2024-03-30 02:46:17,914] {dataloader:147} INFO - data distribution after processing:
	Wake                : 28382
	Non REM             : 20704
	REM                 : 2544
[2024-03-30 02:46:18,772] {run_experiment:47} INFO - classifier:
Model(
  (feature_extractor): Sequential(
    (0): BatchNorm1d(1, eps=1e-05, momentum=0.1, affine=True, track_running_stats=True)
    (1): Conv1d(1, 96, kernel_size=(5,), stride=(1,))
    (2): ReLU(inplace=True)
    (3): BatchNorm1d(96, eps=1e-05, momentum=0.1, affine=True, track_running_stats=True)
    (4): Dropout(p=0.0, inplace=False)
    (5): Conv1d(96, 96, kernel_size=(5,), stride=(2,))
    (6): ReLU(inplace=True)
    (7): BatchNorm1d(96, eps=1e-05, momentum=0.1, affine=True, track_running_stats=True)
    (8): Dropout(p=0.2, inplace=False)
    (9): Conv1d(96, 96, kernel_size=(5,), stride=(1,))
    (10): ReLU(inplace=True)
    (11): BatchNorm1d(96, eps=1e-05, momentum=0.1, affine=True, track_running_stats=True)
    (12): Dropout(p=0.0, inplace=False)
    (13): Conv1d(96, 96, kernel_size=(5,), stride=(2,))
    (14): ReLU(inplace=True)
    (15): BatchNorm1d(96, eps=1e-05, momentum=0.1, affine=True, track_running_stats=True)
    (16): Dropout(p=0.2, inplace=False)
    (17): Conv1d(96, 96, kernel_size=(5,), stride=(1,))
    (18): ReLU(inplace=True)
    (19): BatchNorm1d(96, eps=1e-05, momentum=0.1, affine=True, track_running_stats=True)
    (20): Dropout(p=0.0, inplace=False)
    (21): Conv1d(96, 96, kernel_size=(5,), stride=(2,))
    (22): ReLU(inplace=True)
    (23): BatchNorm1d(96, eps=1e-05, momentum=0.1, affine=True, track_running_stats=True)
    (24): Dropout(p=0.2, inplace=False)
    (25): Conv1d(96, 96, kernel_size=(5,), stride=(1,))
    (26): ReLU(inplace=True)
    (27): BatchNorm1d(96, eps=1e-05, momentum=0.1, affine=True, track_running_stats=True)
    (28): Dropout(p=0.0, inplace=False)
    (29): Conv1d(96, 96, kernel_size=(5,), stride=(2,))
    (30): ReLU(inplace=True)
    (31): BatchNorm1d(96, eps=1e-05, momentum=0.1, affine=True, track_running_stats=True)
    (32): Dropout(p=0.2, inplace=False)
  )
  (classifier): Sequential(
    (0): Dropout(p=0.2, inplace=False)
    (1): Linear(in_features=10848, out_features=80, bias=True)
    (2): ReLU(inplace=True)
    (3): Dropout(p=0.2, inplace=False)
    (4): Linear(in_features=80, out_features=3, bias=True)
  )
)
[2024-03-30 02:46:30,744] {train_model:82} INFO - Train Epoch: 1 [36352/366120 (10%)]	lr:2.56e-05	Loss: 88.381142
[2024-03-30 02:46:36,992] {train_model:82} INFO - Train Epoch: 1 [72960/366120 (20%)]	lr:2.56e-05	Loss: 74.375275
[2024-03-30 02:46:43,160] {train_model:82} INFO - Train Epoch: 1 [109568/366120 (30%)]	lr:2.56e-05	Loss: 69.186478
[2024-03-30 02:46:49,392] {train_model:82} INFO - Train Epoch: 1 [146176/366120 (40%)]	lr:2.56e-05	Loss: 45.643097
…
